…
        "- In this section, we are modifying the pretrained LLM to make it ready for classification finetuning\n",
        "- Let's take a look at the model architecture first"
      ]
    },
    {
      "cell_type": "code",
      "execution_count": 24,
      "id": "b23aff91-6bd0-48da-88f6-353657e6c981",
      "metadata": {
        "colab": {
          "base_uri": "https://localhost:8080/"
        },
        "id": "b23aff91-6bd0-48da-88f6-353657e6c981",
        "outputId": "b9a1f7bb-4630-415e-8952-ba0d8e794bee"
      },
      "outputs": [
        {
          "output_type": "stream",
          "name": "stdout",
          "text": [
            "GPTModel(\n",
            "  (tok_emb): Embedding(50257, 768)\n",
            "  (pos_emb): Embedding(1024, 768)\n",
            "  (drop_emb): Dropout(p=0.0, inplace=False)\n",
            "  (trf_blocks): Sequential(\n",
            "    (0): TransformerBlock(\n",
            "      (att): MultiHeadAttention(\n",
            "        (W_query): Linear(in_features=768, out_features=768, bias=True)\n",
            "        (W_key): Linear(in_features=768, out_features=768, bias=True)\n",
            "        (W_value): Linear(in_features=768, out_features=768, bias=True)\n",
            "        (out_proj): Linear(in_features=768, out_features=768, bias=True)\n",
            "        (dropout): Dropout(p=0.0, inplace=False)\n",
            "      )\n",
            "      (ff): FeedForward(\n",
            "        (layers): Sequential(\n",
            "          (0): Linear(in_features=768, out_features=3072, bias=True)\n",
            "          (1): GELU()\n",
            "          (2): Linear(in_features=3072, out_features=768, bias=True)\n",
            "        )\n",
            "      )\n",
            "      (norm1): LayerNorm()\n",
            "      (norm2): LayerNorm()\n",
            "      (drop_resid): Dropout(p=0.0, inplace=False)\n",
            "    )\n",
            "    (1): TransformerBlock(\n",
            "      (att): MultiHeadAttention(\n",
            "        (W_query): Linear(in_features=768, out_features=768, bias=True)\n",
            "        (W_key): Linear(in_features=768, out_features=768, bias=True)\n",
            "        (W_value): Linear(in_features=768, out_features=768, bias=True)\n",
            "        (out_proj): Linear(in_features=768, out_features=768, bias=True)\n",
            "        (dropout): Dropout(p=0.0, inplace=False)\n",
            "      )\n",
            "      (ff): FeedForward(\n",
            "        (layers): Sequential(\n",
            "          (0): Linear(in_features=768, out_features=3072, bias=True)\n",
            "          (1): GELU()\n",
            "          (2): Linear(in_features=3072, out_features=768, bias=True)\n",
            "        )\n",
            "      )\n",
            "      (norm1): LayerNorm()\n",
            "      (norm2): LayerNorm()\n",
            "      (drop_resid): Dropout(p=0.0, inplace=False)\n",
            "    )\n",
            "    (2): TransformerBlock(\n",
            "      (att): MultiHeadAttention(\n",
            "        (W_query): Linear(in_features=768, out_features=768, bias=True)\n",
            "        (W_key): Linear(in_features=768, out_features=768, bias=True)\n",
            "        (W_value): Linear(in_features=768, out_features=768, bias=True)\n",
            "        (out_proj): Linear(in_features=768, out_features=768, bias=True)\n",
            "        (dropout): Dropout(p=0.0, inplace=False)\n",
            "      )\n",
            "      (ff): FeedForward(\n",
            "        (layers): Sequential(\n",
            "          (0): Linear(in_features=768, out_features=3072, bias=True)\n",
            "          (1): GELU()\n",
            "          (2): Linear(in_features=3072, out_features=768, bias=True)\n",
            "        )\n",
            "      )\n",
            "      (norm1): LayerNorm()\n",
            "      (norm2): LayerNorm()\n",
            "      (drop_resid): Dropout(p=0.0, inplace=False)\n",
            "    )\n",
            "    (3): TransformerBlock(\n",
            "      (att): MultiHeadAttention(\n",
            "        (W_query): Linear(in_features=768, out_features=768, bias=True)\n",
            "        (W_key): Linear(in_features=768, out_features=768, bias=True)\n",
            "        (W_value): Linear(in_features=768, out_features=768, bias=True)\n",
            "        (out_proj): Linear(in_features=768, out_features=768, bias=True)\n",
            "        (dropout): Dropout(p=0.0, inplace=False)\n",
            "      )\n",
            "      (ff): FeedForward(\n",
            "        (layers): Sequential(\n",
            "          (0): Linear(in_features=768, out_features=3072, bias=True)\n",
            "          (1): GELU()\n",
            "          (2): Linear(in_features=3072, out_features=768, bias=True)\n",
            "        )\n",
            "      )\n",
            "      (norm1): LayerNorm()\n",
            "      (norm2): LayerNorm()\n",
            "      (drop_resid): Dropout(p=0.0, inplace=False)\n",
            "    )\n",
            "    (4): TransformerBlock(\n",
            "      (att): MultiHeadAttention(\n",
            "        (W_query): Linear(in_features=768, out_features=768, bias=True)\n",
            "        (W_key): Linear(in_features=768, out_features=768, bias=True)\n",
            "        (W_value): Linear(in_features=768, out_features=768, bias=True)\n",
            "        (out_proj): Linear(in_features=768, out_features=768, bias=True)\n",
            "        (dropout): Dropout(p=0.0, inplace=False)\n",
            "      )\n",
            "      (ff): FeedForward(\n",
            "        (layers): Sequential(\n",
            "          (0): Linear(in_features=768, out_features=3072, bias=True)\n",
            "          (1): GELU()\n",
            "          (2): Linear(in_features=3072, out_features=768, bias=True)\n",
            "        )\n",
            "      )\n",
            "      (norm1): LayerNorm()\n",
            "      (norm2): LayerNorm()\n",
            "      (drop_resid): Dropout(p=0.0, inplace=False)\n",
            "    )\n",
            "    (5): TransformerBlock(\n",
            "      (att): MultiHeadAttention(\n",
            "        (W_query): Linear(in_features=768, out_features=768, bias=True)\n",
            "        (W_key): Linear(in_features=768, out_features=768, bias=True)\n",
            "        (W_value): Linear(in_features=768, out_features=768, bias=True)\n",
            "        (out_proj): Linear(in_features=768, out_features=768, bias=True)\n",
            "        (dropout): Dropout(p=0.0, inplace=False)\n",
            "      )\n",
            "      (ff): FeedForward(\n",
            "        (layers): Sequential(\n",
            "          (0): Linear(in_features=768, out_features=3072, bias=True)\n",
            "          (1): GELU()\n",
            "          (2): Linear(in_features=3072, out_features=768, bias=True)\n",
            "        )\n",
            "      )\n",
            "      (norm1): LayerNorm()\n",
            "      (norm2): LayerNorm()\n",
            "      (drop_resid): Dropout(p=0.0, inplace=False)\n",
            "    )\n",
            "    (6): TransformerBlock(\n",
            "      (att): MultiHeadAttention(\n",
            "        (W_query): Linear(in_features=768, out_features=768, bias=True)\n",
            "        (W_key): Linear(in_features=768, out_features=768, bias=True)\n",
            "        (W_value): Linear(in_features=768, out_features=768, bias=True)\n",
            "        (out_proj): Linear(in_features=768, out_features=768, bias=True)\n",
            "        (dropout): Dropout(p=0.0, inplace=False)\n",
            "      )\n",
            "      (ff): FeedForward(\n",
            "        (layers): Sequential(\n",
            "          (0): Linear(in_features=768, out_features=3072, bias=True)\n",
            "          (1): GELU()\n",
            "          (2): Linear(in_features=3072, out_features=768, bias=True)\n",
            "        )\n",
            "      )\n",
            "      (norm1): LayerNorm()\n",
            "      (norm2): LayerNorm()\n",
            "      (drop_resid): Dropout(p=0.0, inplace=False)\n",
            "    )\n",
            "    (7): TransformerBlock(\n",
            "      (att): MultiHeadAttention(\n",
            "        (W_query): Linear(in_features=768, out_features=768, bias=True)\n",
            "        (W_key): Linear(in_features=768, out_features=768, bias=True)\n",
            "        (W_value): Linear(in_features=768, out_features=768, bias=True)\n",
            "        (out_proj): Linear(in_features=768, out_features=768, bias=True)\n",
            "        (dropout): Dropout(p=0.0, inplace=False)\n",
            "      )\n",
            "      (ff): FeedForward(\n",
            "        (layers): Sequential(\n",
            "          (0): Linear(in_features=768, out_features=3072, bias=True)\n",
            "          (1): GELU()\n",
            "          (2): Linear(in_features=3072, out_features=768, bias=True)\n",
            "        )\n",
            "      )\n",
            "      (norm1): LayerNorm()\n",
            "      (norm2): LayerNorm()\n",
            "      (drop_resid): Dropout(p=0.0, inplace=False)\n",
            "    )\n",
            "    (8): TransformerBlock(\n",
            "      (att): MultiHeadAttention(\n",
            "        (W_query): Linear(in_features=768, out_features=768, bias=True)\n",
            "        (W_key): Linear(in_features=768, out_features=768, bias=True)\n",
            "        (W_value): Linear(in_features=768, out_features=768, bias=True)\n",
            "        (out_proj): Linear(in_features=768, out_features=768, bias=True)\n",
            "        (dropout): Dropout(p=0.0, inplace=False)\n",
            "      )\n",
            "      (ff): FeedForward(\n",
            "        (layers): Sequential(\n",
            "          (0): Linear(in_features=768, out_features=3072, bias=True)\n",
            "          (1): GELU()\n",
            "          (2): Linear(in_features=3072, out_features=768, bias=True)\n",
            "        )\n",
            "      )\n",
            "      (norm1): LayerNorm()\n",
            "      (norm2): LayerNorm()\n",
            "      (drop_resid): Dropout(p=0.0, inplace=False)\n",
            "    )\n",
            "    (9): TransformerBlock(\n",
            "      (att): MultiHeadAttention(\n",
            "        (W_query): Linear(in_features=768, out_features=768, bias=True)\n",
            "        (W_key): Linear(in_features=768, out_features=768, bias=True)\n",
            "        (W_value): Linear(in_features=768, out_features=768, bias=True)\n",
            "        (out_proj): Linear(in_features=768, out_features=768, bias=True)\n",
            "        (dropout): Dropout(p=0.0, inplace=False)\n",
            "      )\n",
            "      (ff): FeedForward(\n",
            "        (layers): Sequential(\n",
            "          (0): Linear(in_features=768, out_features=3072, bias=True)\n",
            "          (1): GELU()\n",
            "          (2): Linear(in_features=3072, out_features=768, bias=True)\n",
            "        )\n",
            "      )\n",
            "      (norm1): LayerNorm()\n",
            "      (norm2): LayerNorm()\n",
            "      (drop_resid): Dropout(p=0.0, inplace=False)\n",
            "    )\n",
            "    (10): TransformerBlock(\n",
            "      (att): MultiHeadAttention(\n",
            "        (W_query): Linear(in_features=768, out_features=768, bias=True)\n",
            "        (W_key): Linear(in_features=768, out_features=768, bias=True)\n",
            "        (W_value): Linear(in_features=768, out_features=768, bias=True)\n",
            "        (out_proj): Linear(in_features=768, out_features=768, bias=True)\n",
            "        (dropout): Dropout(p=0.0, inplace=False)\n",
            "      )\n",
            "      (ff): FeedForward(\n",
            "        (layers): Sequential(\n",
            "          (0): Linear(in_features=768, out_features=3072, bias=True)\n",
            "          (1): GELU()\n",
            "          (2): Linear(in_features=3072, out_features=768, bias=True)\n",
            "        )\n",
            "      )\n",
            "      (norm1): LayerNorm()\n",
            "      (norm2): LayerNorm()\n",
            "      (drop_resid): Dropout(p=0.0, inplace=False)\n",
            "    )\n",
            "    (11): TransformerBlock(\n",
            "      (att): MultiHeadAttention(\n",
            "        (W_query): Linear(in_features=768, out_features=768, bias=True)\n",
            "        (W_key): Linear(in_features=768, out_features=768, bias=True)\n",
            "        (W_value): Linear(in_features=768, out_features=768, bias=True)\n",
            "        (out_proj): Linear(in_features=768, out_features=768, bias=True)\n",
            "        (dropout): Dropout(p=0.0, inplace=False)\n",
            "      )\n",
            "      (ff): FeedForward(\n",
            "        (layers): Sequential(\n",
            "          (0): Linear(in_features=768, out_features=3072, bias=True)\n",
            "          (1): GELU()\n",
            "          (2): Linear(in_features=3072, out_features=768, bias=True)\n",
            "        )\n",
            "      )\n",
            "      (norm1): LayerNorm()\n",
            "      (norm2): LayerNorm()\n",
            "      (drop_resid): Dropout(p=0.0, inplace=False)\n",
            "    )\n",
            "  )\n",
            "  (final_norm): LayerNorm()\n",
            "  (out_head): Linear(in_features=768, out_features=50257, bias=False)\n",
            ")\n"
          ]
        }
      ],
      "source": [
        "print(model)"
      ]
    },
    {
      "cell_type": "markdown",
      "id": "3f640a76-dd00-4769-9bc8-1aed0cec330d",
      "metadata": {
        "id": "3f640a76-dd00-4769-9bc8-1aed0cec330d"
      },
      "source": [
        "- Above, we can see the architecture we implemented in chapter 4 neatly laid out\n",
…
